…
Load state_dict by model_key = model
Weights of BEiT3ForImageClassification not initialized from pretrained model: ['fc_norm.weight', 'fc_norm.bias', 'head.weight', 'head.bias']
Weights from pretrained model not used in BEiT3ForImageClassification: ['language_head.weight', 'vision_head.weight', 'logit_scale', 'beit3.encoder.layer_norm.A.weight', 'beit3.encoder.layer_norm.A.bias', 'beit3.encoder.layer_norm.B.weight', 'beit3.encoder.layer_norm.B.bias']
Model = BEiT3ForImageClassification(
  (beit3): BEiT3(
    (text_embed): TextEmbedding(64010, 1024)
    (vision_embed): VisionEmbedding(
      (proj): Conv2d(3, 1024, kernel_size=(16, 16), stride=(16, 16))
    )
    (encoder): Encoder(
      (dropout_module): Dropout(p=0.0, inplace=False)
      (embed_positions): MutliwayEmbedding(
        (A): PositionalEmbedding(199, 1024)
        (B): PositionalEmbedding(1024, 1024)
      )
      (layers): ModuleList(
        (0): EncoderLayer(
          (self_attn): MultiheadAttention(
            (k_proj): MultiwayNetwork(
              (A): Linear(in_features=1024, out_features=1024, bias=True)
              (B): Linear(in_features=1024, out_features=1024, bias=True)
            )
            (v_proj): MultiwayNetwork(
              (A): Linear(in_features=1024, out_features=1024, bias=True)
              (B): Linear(in_features=1024, out_features=1024, bias=True)
            )
            (q_proj): MultiwayNetwork(
              (A): Linear(in_features=1024, out_features=1024, bias=True)
              (B): Linear(in_features=1024, out_features=1024, bias=True)
            )
            (out_proj): MultiwayNetwork(
              (A): Linear(in_features=1024, out_features=1024, bias=True)
              (B): Linear(in_features=1024, out_features=1024, bias=True)
            )
            (inner_attn_ln): MultiwayNetwork(
              (A): LayerNorm((1024,), eps=1e-05, elementwise_affine=True)
              (B): LayerNorm((1024,), eps=1e-05, elementwise_affine=True)
            )
            (dropout_module): Dropout(p=0.0, inplace=False)
          )
          (self_attn_layer_norm): MultiwayNetwork(
            (A): LayerNorm((1024,), eps=1e-05, elementwise_affine=True)
            (B): LayerNorm((1024,), eps=1e-05, elementwise_affine=True)
          )
          (dropout_module): Dropout(p=0.0, inplace=False)
          (drop_path): DropPath(p=0.0)
          (ffn): MultiwayNetwork(
            (A): FeedForwardNetwork(
              (activation_dropout_module): Dropout(p=0.0, inplace=False)
              (dropout_module): Dropout(p=0.0, inplace=False)
              (fc1): Linear(in_features=1024, out_features=4096, bias=True)
              (fc2): Linear(in_features=4096, out_features=1024, bias=True)
              (ffn_layernorm): LayerNorm((4096,), eps=1e-05, elementwise_affine=True)
            )
            (B): FeedForwardNetwork(
              (activation_dropout_module): Dropout(p=0.0, inplace=False)
              (dropout_module): Dropout(p=0.0, inplace=False)
              (fc1): Linear(in_features=1024, out_features=4096, bias=True)
              (fc2): Linear(in_features=4096, out_features=1024, bias=True)
              (ffn_layernorm): LayerNorm((4096,), eps=1e-05, elementwise_affine=True)
            )
          )
          (final_layer_norm): MultiwayNetwork(
            (A): LayerNorm((1024,), eps=1e-05, elementwise_affine=True)
            (B): LayerNorm((1024,), eps=1e-05, elementwise_affine=True)
          )
        )
        (1): EncoderLayer(
          (self_attn): MultiheadAttention(
            (k_proj): MultiwayNetwork(
              (A): Linear(in_features=1024, out_features=1024, bias=True)
              (B): Linear(in_features=1024, out_features=1024, bias=True)
            )
            (v_proj): MultiwayNetwork(
              (A): Linear(in_features=1024, out_features=1024, bias=True)
              (B): Linear(in_features=1024, out_features=1024, bias=True)
            )
            (q_proj): MultiwayNetwork(
              (A): Linear(in_features=1024, out_features=1024, bias=True)
              (B): Linear(in_features=1024, out_features=1024, bias=True)
            )
            (out_proj): MultiwayNetwork(
              (A): Linear(in_features=1024, out_features=1024, bias=True)
              (B): Linear(in_features=1024, out_features=1024, bias=True)
            )
            (inner_attn_ln): MultiwayNetwork(
              (A): LayerNorm((1024,), eps=1e-05, elementwise_affine=True)
              (B): LayerNorm((1024,), eps=1e-05, elementwise_affine=True)
            )
            (dropout_module): Dropout(p=0.0, inplace=False)
          )
          (self_attn_layer_norm): MultiwayNetwork(
            (A): LayerNorm((1024,), eps=1e-05, elementwise_affine=True)
            (B): LayerNorm((1024,), eps=1e-05, elementwise_affine=True)
          )
          (dropout_module): Dropout(p=0.0, inplace=False)
          (drop_path): DropPath(p=0.010869565217391304)
          (ffn): MultiwayNetwork(
            (A): FeedForwardNetwork(
              (activation_dropout_module): Dropout(p=0.0, inplace=False)
              (dropout_module): Dropout(p=0.0, inplace=False)
              (fc1): Linear(in_features=1024, out_features=4096, bias=True)
              (fc2): Linear(in_features=4096, out_features=1024, bias=True)
              (ffn_layernorm): LayerNorm((4096,), eps=1e-05, elementwise_affine=True)
            )
            (B): FeedForwardNetwork(
              (activation_dropout_module): Dropout(p=0.0, inplace=False)
              (dropout_module): Dropout(p=0.0, inplace=False)
              (fc1): Linear(in_features=1024, out_features=4096, bias=True)
              (fc2): Linear(in_features=4096, out_features=1024, bias=True)
              (ffn_layernorm): LayerNorm((4096,), eps=1e-05, elementwise_affine=True)
            )
          )
          (final_layer_norm): MultiwayNetwork(
            (A): LayerNorm((1024,), eps=1e-05, elementwise_affine=True)
            (B): LayerNorm((1024,), eps=1e-05, elementwise_affine=True)
          )
        )
        (2): EncoderLayer(
          (self_attn): MultiheadAttention(
            (k_proj): MultiwayNetwork(
              (A): Linear(in_features=1024, out_features=1024, bias=True)
              (B): Linear(in_features=1024, out_features=1024, bias=True)
            )
            (v_proj): MultiwayNetwork(
              (A): Linear(in_features=1024, out_features=1024, bias=True)
              (B): Linear(in_features=1024, out_features=1024, bias=True)
            )
            (q_proj): MultiwayNetwork(
              (A): Linear(in_features=1024, out_features=1024, bias=True)
              (B): Linear(in_features=1024, out_features=1024, bias=True)
            )
            (out_proj): MultiwayNetwork(
              (A): Linear(in_features=1024, out_features=1024, bias=True)
              (B): Linear(in_features=1024, out_features=1024, bias=True)
            )
            (inner_attn_ln): MultiwayNetwork(
              (A): LayerNorm((1024,), eps=1e-05, elementwise_affine=True)
              (B): LayerNorm((1024,), eps=1e-05, elementwise_affine=True)
            )
            (dropout_module): Dropout(p=0.0, inplace=False)
          )
          (self_attn_layer_norm): MultiwayNetwork(
            (A): LayerNorm((1024,), eps=1e-05, elementwise_affine=True)
            (B): LayerNorm((1024,), eps=1e-05, elementwise_affine=True)
          )
          (dropout_module): Dropout(p=0.0, inplace=False)
          (drop_path): DropPath(p=0.021739130434782608)
          (ffn): MultiwayNetwork(
            (A): FeedForwardNetwork(
              (activation_dropout_module): Dropout(p=0.0, inplace=False)
              (dropout_module): Dropout(p=0.0, inplace=False)
              (fc1): Linear(in_features=1024, out_features=4096, bias=True)
              (fc2): Linear(in_features=4096, out_features=1024, bias=True)
              (ffn_layernorm): LayerNorm((4096,), eps=1e-05, elementwise_affine=True)
            )
            (B): FeedForwardNetwork(
              (activation_dropout_module): Dropout(p=0.0, inplace=False)
              (dropout_module): Dropout(p=0.0, inplace=False)
              (fc1): Linear(in_features=1024, out_features=4096, bias=True)
              (fc2): Linear(in_features=4096, out_features=1024, bias=True)
              (ffn_layernorm): LayerNorm((4096,), eps=1e-05, elementwise_affine=True)
            )
          )
          (final_layer_norm): MultiwayNetwork(
            (A): LayerNorm((1024,), eps=1e-05, elementwise_affine=True)
            (B): LayerNorm((1024,), eps=1e-05, elementwise_affine=True)
          )
        )
        (3): EncoderLayer(
          (self_attn): MultiheadAttention(
            (k_proj): MultiwayNetwork(
              (A): Linear(in_features=1024, out_features=1024, bias=True)
              (B): Linear(in_features=1024, out_features=1024, bias=True)
            )
            (v_proj): MultiwayNetwork(
              (A): Linear(in_features=1024, out_features=1024, bias=True)
              (B): Linear(in_features=1024, out_features=1024, bias=True)
            )
            (q_proj): MultiwayNetwork(
              (A): Linear(in_features=1024, out_features=1024, bias=True)
              (B): Linear(in_features=1024, out_features=1024, bias=True)
            )
            (out_proj): MultiwayNetwork(
              (A): Linear(in_features=1024, out_features=1024, bias=True)
              (B): Linear(in_features=1024, out_features=1024, bias=True)
            )
            (inner_attn_ln): MultiwayNetwork(
              (A): LayerNorm((1024,), eps=1e-05, elementwise_affine=True)
              (B): LayerNorm((1024,), eps=1e-05, elementwise_affine=True)
            )
            (dropout_module): Dropout(p=0.0, inplace=False)
          )
          (self_attn_layer_norm): MultiwayNetwork(
            (A): LayerNorm((1024,), eps=1e-05, elementwise_affine=True)
            (B): LayerNorm((1024,), eps=1e-05, elementwise_affine=True)
          )
          (dropout_module): Dropout(p=0.0, inplace=False)
          (drop_path): DropPath(p=0.03260869565217391)
          (ffn): MultiwayNetwork(
            (A): FeedForwardNetwork(
              (activation_dropout_module): Dropout(p=0.0, inplace=False)
              (dropout_module): Dropout(p=0.0, inplace=False)
              (fc1): Linear(in_features=1024, out_features=4096, bias=True)
              (fc2): Linear(in_features=4096, out_features=1024, bias=True)
              (ffn_layernorm): LayerNorm((4096,), eps=1e-05, elementwise_affine=True)
            )
            (B): FeedForwardNetwork(
              (activation_dropout_module): Dropout(p=0.0, inplace=False)
              (dropout_module): Dropout(p=0.0, inplace=False)
              (fc1): Linear(in_features=1024, out_features=4096, bias=True)
              (fc2): Linear(in_features=4096, out_features=1024, bias=True)
              (ffn_layernorm): LayerNorm((4096,), eps=1e-05, elementwise_affine=True)
            )
          )
          (final_layer_norm): MultiwayNetwork(
            (A): LayerNorm((1024,), eps=1e-05, elementwise_affine=True)
            (B): LayerNorm((1024,), eps=1e-05, elementwise_affine=True)
          )
        )
        (4): EncoderLayer(
          (self_attn): MultiheadAttention(
            (k_proj): MultiwayNetwork(
              (A): Linear(in_features=1024, out_features=1024, bias=True)
              (B): Linear(in_features=1024, out_features=1024, bias=True)
            )
            (v_proj): MultiwayNetwork(
              (A): Linear(in_features=1024, out_features=1024, bias=True)
              (B): Linear(in_features=1024, out_features=1024, bias=True)
            )
            (q_proj): MultiwayNetwork(
              (A): Linear(in_features=1024, out_features=1024, bias=True)
              (B): Linear(in_features=1024, out_features=1024, bias=True)
            )
            (out_proj): MultiwayNetwork(
              (A): Linear(in_features=1024, out_features=1024, bias=True)
              (B): Linear(in_features=1024, out_features=1024, bias=True)
            )
            (inner_attn_ln): MultiwayNetwork(
              (A): LayerNorm((1024,), eps=1e-05, elementwise_affine=True)
              (B): LayerNorm((1024,), eps=1e-05, elementwise_affine=True)
            )
            (dropout_module): Dropout(p=0.0, inplace=False)
          )
          (self_attn_layer_norm): MultiwayNetwork(
            (A): LayerNorm((1024,), eps=1e-05, elementwise_affine=True)
            (B): LayerNorm((1024,), eps=1e-05, elementwise_affine=True)
          )
          (dropout_module): Dropout(p=0.0, inplace=False)
          (drop_path): DropPath(p=0.043478260869565216)
          (ffn): MultiwayNetwork(
            (A): FeedForwardNetwork(
              (activation_dropout_module): Dropout(p=0.0, inplace=False)
              (dropout_module): Dropout(p=0.0, inplace=False)
              (fc1): Linear(in_features=1024, out_features=4096, bias=True)
              (fc2): Linear(in_features=4096, out_features=1024, bias=True)
              (ffn_layernorm): LayerNorm((4096,), eps=1e-05, elementwise_affine=True)
            )
            (B): FeedForwardNetwork(
              (activation_dropout_module): Dropout(p=0.0, inplace=False)
              (dropout_module): Dropout(p=0.0, inplace=False)
              (fc1): Linear(in_features=1024, out_features=4096, bias=True)
              (fc2): Linear(in_features=4096, out_features=1024, bias=True)
              (ffn_layernorm): LayerNorm((4096,), eps=1e-05, elementwise_affine=True)
            )
          )
          (final_layer_norm): MultiwayNetwork(
            (A): LayerNorm((1024,), eps=1e-05, elementwise_affine=True)
            (B): LayerNorm((1024,), eps=1e-05, elementwise_affine=True)
          )
        )
        (5): EncoderLayer(
          (self_attn): MultiheadAttention(
            (k_proj): MultiwayNetwork(
              (A): Linear(in_features=1024, out_features=1024, bias=True)
              (B): Linear(in_features=1024, out_features=1024, bias=True)
            )
            (v_proj): MultiwayNetwork(
              (A): Linear(in_features=1024, out_features=1024, bias=True)
              (B): Linear(in_features=1024, out_features=1024, bias=True)
            )
            (q_proj): MultiwayNetwork(
              (A): Linear(in_features=1024, out_features=1024, bias=True)
              (B): Linear(in_features=1024, out_features=1024, bias=True)
            )
            (out_proj): MultiwayNetwork(
              (A): Linear(in_features=1024, out_features=1024, bias=True)
              (B): Linear(in_features=1024, out_features=1024, bias=True)
            )
            (inner_attn_ln): MultiwayNetwork(
              (A): LayerNorm((1024,), eps=1e-05, elementwise_affine=True)
              (B): LayerNorm((1024,), eps=1e-05, elementwise_affine=True)
            )
            (dropout_module): Dropout(p=0.0, inplace=False)
          )
          (self_attn_layer_norm): MultiwayNetwork(
            (A): LayerNorm((1024,), eps=1e-05, elementwise_affine=True)
            (B): LayerNorm((1024,), eps=1e-05, elementwise_affine=True)
          )
          (dropout_module): Dropout(p=0.0, inplace=False)
          (drop_path): DropPath(p=0.05434782608695652)
          (ffn): MultiwayNetwork(
            (A): FeedForwardNetwork(
              (activation_dropout_module): Dropout(p=0.0, inplace=False)
              (dropout_module): Dropout(p=0.0, inplace=False)
              (fc1): Linear(in_features=1024, out_features=4096, bias=True)
              (fc2): Linear(in_features=4096, out_features=1024, bias=True)
              (ffn_layernorm): LayerNorm((4096,), eps=1e-05, elementwise_affine=True)
            )
            (B): FeedForwardNetwork(
              (activation_dropout_module): Dropout(p=0.0, inplace=False)
              (dropout_module): Dropout(p=0.0, inplace=False)
              (fc1): Linear(in_features=1024, out_features=4096, bias=True)
              (fc2): Linear(in_features=4096, out_features=1024, bias=True)
              (ffn_layernorm): LayerNorm((4096,), eps=1e-05, elementwise_affine=True)
            )
          )
          (final_layer_norm): MultiwayNetwork(
            (A): LayerNorm((1024,), eps=1e-05, elementwise_affine=True)
            (B): LayerNorm((1024,), eps=1e-05, elementwise_affine=True)
          )
        )
        (6): EncoderLayer(
          (self_attn): MultiheadAttention(
            (k_proj): MultiwayNetwork(
              (A): Linear(in_features=1024, out_features=1024, bias=True)
              (B): Linear(in_features=1024, out_features=1024, bias=True)
            )
            (v_proj): MultiwayNetwork(
              (A): Linear(in_features=1024, out_features=1024, bias=True)
              (B): Linear(in_features=1024, out_features=1024, bias=True)
            )
            (q_proj): MultiwayNetwork(
              (A): Linear(in_features=1024, out_features=1024, bias=True)
              (B): Linear(in_features=1024, out_features=1024, bias=True)
            )
            (out_proj): MultiwayNetwork(
              (A): Linear(in_features=1024, out_features=1024, bias=True)
              (B): Linear(in_features=1024, out_features=1024, bias=True)
            )
            (inner_attn_ln): MultiwayNetwork(
              (A): LayerNorm((1024,), eps=1e-05, elementwise_affine=True)
              (B): LayerNorm((1024,), eps=1e-05, elementwise_affine=True)
            )
            (dropout_module): Dropout(p=0.0, inplace=False)
          )
          (self_attn_layer_norm): MultiwayNetwork(
            (A): LayerNorm((1024,), eps=1e-05, elementwise_affine=True)
            (B): LayerNorm((1024,), eps=1e-05, elementwise_affine=True)
          )
          (dropout_module): Dropout(p=0.0, inplace=False)
          (drop_path): DropPath(p=0.06521739130434782)
          (ffn): MultiwayNetwork(
            (A): FeedForwardNetwork(
              (activation_dropout_module): Dropout(p=0.0, inplace=False)
              (dropout_module): Dropout(p=0.0, inplace=False)
              (fc1): Linear(in_features=1024, out_features=4096, bias=True)
              (fc2): Linear(in_features=4096, out_features=1024, bias=True)
              (ffn_layernorm): LayerNorm((4096,), eps=1e-05, elementwise_affine=True)
            )
            (B): FeedForwardNetwork(
              (activation_dropout_module): Dropout(p=0.0, inplace=False)
              (dropout_module): Dropout(p=0.0, inplace=False)
              (fc1): Linear(in_features=1024, out_features=4096, bias=True)
              (fc2): Linear(in_features=4096, out_features=1024, bias=True)
              (ffn_layernorm): LayerNorm((4096,), eps=1e-05, elementwise_affine=True)
            )
          )
          (final_layer_norm): MultiwayNetwork(
            (A): LayerNorm((1024,), eps=1e-05, elementwise_affine=True)
            (B): LayerNorm((1024,), eps=1e-05, elementwise_affine=True)
          )
        )
        (7): EncoderLayer(
          (self_attn): MultiheadAttention(
            (k_proj): MultiwayNetwork(
              (A): Linear(in_features=1024, out_features=1024, bias=True)
              (B): Linear(in_features=1024, out_features=1024, bias=True)
            )
            (v_proj): MultiwayNetwork(
              (A): Linear(in_features=1024, out_features=1024, bias=True)
              (B): Linear(in_features=1024, out_features=1024, bias=True)
            )
            (q_proj): MultiwayNetwork(
              (A): Linear(in_features=1024, out_features=1024, bias=True)
              (B): Linear(in_features=1024, out_features=1024, bias=True)
            )
            (out_proj): MultiwayNetwork(
              (A): Linear(in_features=1024, out_features=1024, bias=True)
              (B): Linear(in_features=1024, out_features=1024, bias=True)
            )
            (inner_attn_ln): MultiwayNetwork(
              (A): LayerNorm((1024,), eps=1e-05, elementwise_affine=True)
              (B): LayerNorm((1024,), eps=1e-05, elementwise_affine=True)
            )
            (dropout_module): Dropout(p=0.0, inplace=False)
          )
          (self_attn_layer_norm): MultiwayNetwork(
            (A): LayerNorm((1024,), eps=1e-05, elementwise_affine=True)
            (B): LayerNorm((1024,), eps=1e-05, elementwise_affine=True)
          )
          (dropout_module): Dropout(p=0.0, inplace=False)
          (drop_path): DropPath(p=0.07608695652173914)
          (ffn): MultiwayNetwork(
            (A): FeedForwardNetwork(
              (activation_dropout_module): Dropout(p=0.0, inplace=False)
              (dropout_module): Dropout(p=0.0, inplace=False)
              (fc1): Linear(in_features=1024, out_features=4096, bias=True)
              (fc2): Linear(in_features=4096, out_features=1024, bias=True)
              (ffn_layernorm): LayerNorm((4096,), eps=1e-05, elementwise_affine=True)
            )
            (B): FeedForwardNetwork(
              (activation_dropout_module): Dropout(p=0.0, inplace=False)
              (dropout_module): Dropout(p=0.0, inplace=False)
              (fc1): Linear(in_features=1024, out_features=4096, bias=True)
              (fc2): Linear(in_features=4096, out_features=1024, bias=True)
              (ffn_layernorm): LayerNorm((4096,), eps=1e-05, elementwise_affine=True)
            )
          )
          (final_layer_norm): MultiwayNetwork(
            (A): LayerNorm((1024,), eps=1e-05, elementwise_affine=True)
            (B): LayerNorm((1024,), eps=1e-05, elementwise_affine=True)
          )
        )
        (8): EncoderLayer(
          (self_attn): MultiheadAttention(
            (k_proj): MultiwayNetwork(
              (A): Linear(in_features=1024, out_features=1024, bias=True)
              (B): Linear(in_features=1024, out_features=1024, bias=True)
            )
            (v_proj): MultiwayNetwork(
              (A): Linear(in_features=1024, out_features=1024, bias=True)
              (B): Linear(in_features=1024, out_features=1024, bias=True)
            )
            (q_proj): MultiwayNetwork(
              (A): Linear(in_features=1024, out_features=1024, bias=True)
              (B): Linear(in_features=1024, out_features=1024, bias=True)
            )
            (out_proj): MultiwayNetwork(
              (A): Linear(in_features=1024, out_features=1024, bias=True)
              (B): Linear(in_features=1024, out_features=1024, bias=True)
            )
            (inner_attn_ln): MultiwayNetwork(
              (A): LayerNorm((1024,), eps=1e-05, elementwise_affine=True)
              (B): LayerNorm((1024,), eps=1e-05, elementwise_affine=True)
            )
            (dropout_module): Dropout(p=0.0, inplace=False)
          )
          (self_attn_layer_norm): MultiwayNetwork(
            (A): LayerNorm((1024,), eps=1e-05, elementwise_affine=True)
            (B): LayerNorm((1024,), eps=1e-05, elementwise_affine=True)
          )
          (dropout_module): Dropout(p=0.0, inplace=False)
          (drop_path): DropPath(p=0.08695652173913043)
          (ffn): MultiwayNetwork(
            (A): FeedForwardNetwork(
              (activation_dropout_module): Dropout(p=0.0, inplace=False)
              (dropout_module): Dropout(p=0.0, inplace=False)
              (fc1): Linear(in_features=1024, out_features=4096, bias=True)
              (fc2): Linear(in_features=4096, out_features=1024, bias=True)
              (ffn_layernorm): LayerNorm((4096,), eps=1e-05, elementwise_affine=True)
            )
            (B): FeedForwardNetwork(
              (activation_dropout_module): Dropout(p=0.0, inplace=False)
              (dropout_module): Dropout(p=0.0, inplace=False)
              (fc1): Linear(in_features=1024, out_features=4096, bias=True)
              (fc2): Linear(in_features=4096, out_features=1024, bias=True)
              (ffn_layernorm): LayerNorm((4096,), eps=1e-05, elementwise_affine=True)
            )
          )
          (final_layer_norm): MultiwayNetwork(
            (A): LayerNorm((1024,), eps=1e-05, elementwise_affine=True)
            (B): LayerNorm((1024,), eps=1e-05, elementwise_affine=True)
          )
        )
        (9): EncoderLayer(
          (self_attn): MultiheadAttention(
            (k_proj): MultiwayNetwork(
              (A): Linear(in_features=1024, out_features=1024, bias=True)
              (B): Linear(in_features=1024, out_features=1024, bias=True)
            )
            (v_proj): MultiwayNetwork(
              (A): Linear(in_features=1024, out_features=1024, bias=True)
              (B): Linear(in_features=1024, out_features=1024, bias=True)
            )
            (q_proj): MultiwayNetwork(
              (A): Linear(in_features=1024, out_features=1024, bias=True)
              (B): Linear(in_features=1024, out_features=1024, bias=True)
            )
            (out_proj): MultiwayNetwork(
              (A): Linear(in_features=1024, out_features=1024, bias=True)
              (B): Linear(in_features=1024, out_features=1024, bias=True)
            )
            (inner_attn_ln): MultiwayNetwork(
              (A): LayerNorm((1024,), eps=1e-05, elementwise_affine=True)
              (B): LayerNorm((1024,), eps=1e-05, elementwise_affine=True)
            )
            (dropout_module): Dropout(p=0.0, inplace=False)
          )
          (self_attn_layer_norm): MultiwayNetwork(
            (A): LayerNorm((1024,), eps=1e-05, elementwise_affine=True)
            (B): LayerNorm((1024,), eps=1e-05, elementwise_affine=True)
          )
          (dropout_module): Dropout(p=0.0, inplace=False)
          (drop_path): DropPath(p=0.09782608695652173)
          (ffn): MultiwayNetwork(
            (A): FeedForwardNetwork(
              (activation_dropout_module): Dropout(p=0.0, inplace=False)
              (dropout_module): Dropout(p=0.0, inplace=False)
              (fc1): Linear(in_features=1024, out_features=4096, bias=True)
              (fc2): Linear(in_features=4096, out_features=1024, bias=True)
              (ffn_layernorm): LayerNorm((4096,), eps=1e-05, elementwise_affine=True)
            )
            (B): FeedForwardNetwork(
              (activation_dropout_module): Dropout(p=0.0, inplace=False)
              (dropout_module): Dropout(p=0.0, inplace=False)
              (fc1): Linear(in_features=1024, out_features=4096, bias=True)
              (fc2): Linear(in_features=4096, out_features=1024, bias=True)
              (ffn_layernorm): LayerNorm((4096,), eps=1e-05, elementwise_affine=True)
            )
          )
          (final_layer_norm): MultiwayNetwork(
            (A): LayerNorm((1024,), eps=1e-05, elementwise_affine=True)
            (B): LayerNorm((1024,), eps=1e-05, elementwise_affine=True)
          )
        )
        (10): EncoderLayer(
          (self_attn): MultiheadAttention(
            (k_proj): MultiwayNetwork(
              (A): Linear(in_features=1024, out_features=1024, bias=True)
              (B): Linear(in_features=1024, out_features=1024, bias=True)
            )
            (v_proj): MultiwayNetwork(
              (A): Linear(in_features=1024, out_features=1024, bias=True)
              (B): Linear(in_features=1024, out_features=1024, bias=True)
            )
            (q_proj): MultiwayNetwork(
              (A): Linear(in_features=1024, out_features=1024, bias=True)
              (B): Linear(in_features=1024, out_features=1024, bias=True)
            )
            (out_proj): MultiwayNetwork(
              (A): Linear(in_features=1024, out_features=1024, bias=True)
              (B): Linear(in_features=1024, out_features=1024, bias=True)
            )
            (inner_attn_ln): MultiwayNetwork(
              (A): LayerNorm((1024,), eps=1e-05, elementwise_affine=True)
              (B): LayerNorm((1024,), eps=1e-05, elementwise_affine=True)
            )
            (dropout_module): Dropout(p=0.0, inplace=False)
          )
          (self_attn_layer_norm): MultiwayNetwork(
            (A): LayerNorm((1024,), eps=1e-05, elementwise_affine=True)
            (B): LayerNorm((1024,), eps=1e-05, elementwise_affine=True)
          )
          (dropout_module): Dropout(p=0.0, inplace=False)
          (drop_path): DropPath(p=0.10869565217391304)
          (ffn): MultiwayNetwork(
            (A): FeedForwardNetwork(
              (activation_dropout_module): Dropout(p=0.0, inplace=False)
              (dropout_module): Dropout(p=0.0, inplace=False)
              (fc1): Linear(in_features=1024, out_features=4096, bias=True)
              (fc2): Linear(in_features=4096, out_features=1024, bias=True)
              (ffn_layernorm): LayerNorm((4096,), eps=1e-05, elementwise_affine=True)
            )
            (B): FeedForwardNetwork(
              (activation_dropout_module): Dropout(p=0.0, inplace=False)
              (dropout_module): Dropout(p=0.0, inplace=False)
              (fc1): Linear(in_features=1024, out_features=4096, bias=True)
              (fc2): Linear(in_features=4096, out_features=1024, bias=True)
              (ffn_layernorm): LayerNorm((4096,), eps=1e-05, elementwise_affine=True)
            )
          )
          (final_layer_norm): MultiwayNetwork(
            (A): LayerNorm((1024,), eps=1e-05, elementwise_affine=True)
            (B): LayerNorm((1024,), eps=1e-05, elementwise_affine=True)
          )
        )
        (11): EncoderLayer(
          (self_attn): MultiheadAttention(
            (k_proj): MultiwayNetwork(
              (A): Linear(in_features=1024, out_features=1024, bias=True)
              (B): Linear(in_features=1024, out_features=1024, bias=True)
            )
            (v_proj): MultiwayNetwork(
              (A): Linear(in_features=1024, out_features=1024, bias=True)
              (B): Linear(in_features=1024, out_features=1024, bias=True)
            )
            (q_proj): MultiwayNetwork(
              (A): Linear(in_features=1024, out_features=1024, bias=True)
              (B): Linear(in_features=1024, out_features=1024, bias=True)
            )
            (out_proj): MultiwayNetwork(
              (A): Linear(in_features=1024, out_features=1024, bias=True)
              (B): Linear(in_features=1024, out_features=1024, bias=True)
            )
            (inner_attn_ln): MultiwayNetwork(
              (A): LayerNorm((1024,), eps=1e-05, elementwise_affine=True)
              (B): LayerNorm((1024,), eps=1e-05, elementwise_affine=True)
            )
            (dropout_module): Dropout(p=0.0, inplace=False)
          )
          (self_attn_layer_norm): MultiwayNetwork(
            (A): LayerNorm((1024,), eps=1e-05, elementwise_affine=True)
            (B): LayerNorm((1024,), eps=1e-05, elementwise_affine=True)
          )
          (dropout_module): Dropout(p=0.0, inplace=False)
          (drop_path): DropPath(p=0.11956521739130435)
          (ffn): MultiwayNetwork(
            (A): FeedForwardNetwork(
              (activation_dropout_module): Dropout(p=0.0, inplace=False)
              (dropout_module): Dropout(p=0.0, inplace=False)
              (fc1): Linear(in_features=1024, out_features=4096, bias=True)
              (fc2): Linear(in_features=4096, out_features=1024, bias=True)
              (ffn_layernorm): LayerNorm((4096,), eps=1e-05, elementwise_affine=True)
            )
            (B): FeedForwardNetwork(
              (activation_dropout_module): Dropout(p=0.0, inplace=False)
              (dropout_module): Dropout(p=0.0, inplace=False)
              (fc1): Linear(in_features=1024, out_features=4096, bias=True)
              (fc2): Linear(in_features=4096, out_features=1024, bias=True)
              (ffn_layernorm): LayerNorm((4096,), eps=1e-05, elementwise_affine=True)
            )
          )
          (final_layer_norm): MultiwayNetwork(
            (A): LayerNorm((1024,), eps=1e-05, elementwise_affine=True)
            (B): LayerNorm((1024,), eps=1e-05, elementwise_affine=True)
          )
        )
        (12): EncoderLayer(
          (self_attn): MultiheadAttention(
            (k_proj): MultiwayNetwork(
              (A): Linear(in_features=1024, out_features=1024, bias=True)
              (B): Linear(in_features=1024, out_features=1024, bias=True)
            )
            (v_proj): MultiwayNetwork(
              (A): Linear(in_features=1024, out_features=1024, bias=True)
              (B): Linear(in_features=1024, out_features=1024, bias=True)
            )
            (q_proj): MultiwayNetwork(
              (A): Linear(in_features=1024, out_features=1024, bias=True)
              (B): Linear(in_features=1024, out_features=1024, bias=True)
            )
            (out_proj): MultiwayNetwork(
              (A): Linear(in_features=1024, out_features=1024, bias=True)
              (B): Linear(in_features=1024, out_features=1024, bias=True)
            )
            (inner_attn_ln): MultiwayNetwork(
              (A): LayerNorm((1024,), eps=1e-05, elementwise_affine=True)
              (B): LayerNorm((1024,), eps=1e-05, elementwise_affine=True)
            )
            (dropout_module): Dropout(p=0.0, inplace=False)
          )
          (self_attn_layer_norm): MultiwayNetwork(
            (A): LayerNorm((1024,), eps=1e-05, elementwise_affine=True)
            (B): LayerNorm((1024,), eps=1e-05, elementwise_affine=True)
          )
          (dropout_module): Dropout(p=0.0, inplace=False)
          (drop_path): DropPath(p=0.13043478260869565)
          (ffn): MultiwayNetwork(
            (A): FeedForwardNetwork(
              (activation_dropout_module): Dropout(p=0.0, inplace=False)
              (dropout_module): Dropout(p=0.0, inplace=False)
              (fc1): Linear(in_features=1024, out_features=4096, bias=True)
              (fc2): Linear(in_features=4096, out_features=1024, bias=True)
              (ffn_layernorm): LayerNorm((4096,), eps=1e-05, elementwise_affine=True)
            )
            (B): FeedForwardNetwork(
              (activation_dropout_module): Dropout(p=0.0, inplace=False)
              (dropout_module): Dropout(p=0.0, inplace=False)
              (fc1): Linear(in_features=1024, out_features=4096, bias=True)
              (fc2): Linear(in_features=4096, out_features=1024, bias=True)
              (ffn_layernorm): LayerNorm((4096,), eps=1e-05, elementwise_affine=True)
            )
          )
          (final_layer_norm): MultiwayNetwork(
            (A): LayerNorm((1024,), eps=1e-05, elementwise_affine=True)
            (B): LayerNorm((1024,), eps=1e-05, elementwise_affine=True)
          )
        )
        (13): EncoderLayer(
          (self_attn): MultiheadAttention(
            (k_proj): MultiwayNetwork(
              (A): Linear(in_features=1024, out_features=1024, bias=True)
              (B): Linear(in_features=1024, out_features=1024, bias=True)
            )
            (v_proj): MultiwayNetwork(
              (A): Linear(in_features=1024, out_features=1024, bias=True)
              (B): Linear(in_features=1024, out_features=1024, bias=True)
            )
            (q_proj): MultiwayNetwork(
              (A): Linear(in_features=1024, out_features=1024, bias=True)
              (B): Linear(in_features=1024, out_features=1024, bias=True)
            )
            (out_proj): MultiwayNetwork(
              (A): Linear(in_features=1024, out_features=1024, bias=True)
              (B): Linear(in_features=1024, out_features=1024, bias=True)
            )
            (inner_attn_ln): MultiwayNetwork(
              (A): LayerNorm((1024,), eps=1e-05, elementwise_affine=True)
              (B): LayerNorm((1024,), eps=1e-05, elementwise_affine=True)
            )
            (dropout_module): Dropout(p=0.0, inplace=False)
          )
          (self_attn_layer_norm): MultiwayNetwork(
            (A): LayerNorm((1024,), eps=1e-05, elementwise_affine=True)
            (B): LayerNorm((1024,), eps=1e-05, elementwise_affine=True)
          )
          (dropout_module): Dropout(p=0.0, inplace=False)
          (drop_path): DropPath(p=0.14130434782608695)
          (ffn): MultiwayNetwork(
            (A): FeedForwardNetwork(
              (activation_dropout_module): Dropout(p=0.0, inplace=False)
              (dropout_module): Dropout(p=0.0, inplace=False)
              (fc1): Linear(in_features=1024, out_features=4096, bias=True)
              (fc2): Linear(in_features=4096, out_features=1024, bias=True)
              (ffn_layernorm): LayerNorm((4096,), eps=1e-05, elementwise_affine=True)
            )
            (B): FeedForwardNetwork(
              (activation_dropout_module): Dropout(p=0.0, inplace=False)
              (dropout_module): Dropout(p=0.0, inplace=False)
              (fc1): Linear(in_features=1024, out_features=4096, bias=True)
              (fc2): Linear(in_features=4096, out_features=1024, bias=True)
              (ffn_layernorm): LayerNorm((4096,), eps=1e-05, elementwise_affine=True)
            )
          )
          (final_layer_norm): MultiwayNetwork(
            (A): LayerNorm((1024,), eps=1e-05, elementwise_affine=True)
            (B): LayerNorm((1024,), eps=1e-05, elementwise_affine=True)
          )
        )
        (14): EncoderLayer(
          (self_attn): MultiheadAttention(
            (k_proj): MultiwayNetwork(
              (A): Linear(in_features=1024, out_features=1024, bias=True)
              (B): Linear(in_features=1024, out_features=1024, bias=True)
            )
            (v_proj): MultiwayNetwork(
              (A): Linear(in_features=1024, out_features=1024, bias=True)
              (B): Linear(in_features=1024, out_features=1024, bias=True)
            )
            (q_proj): MultiwayNetwork(
              (A): Linear(in_features=1024, out_features=1024, bias=True)
              (B): Linear(in_features=1024, out_features=1024, bias=True)
            )
            (out_proj): MultiwayNetwork(
              (A): Linear(in_features=1024, out_features=1024, bias=True)
              (B): Linear(in_features=1024, out_features=1024, bias=True)
            )
            (inner_attn_ln): MultiwayNetwork(
              (A): LayerNorm((1024,), eps=1e-05, elementwise_affine=True)
              (B): LayerNorm((1024,), eps=1e-05, elementwise_affine=True)
            )
            (dropout_module): Dropout(p=0.0, inplace=False)
          )
          (self_attn_layer_norm): MultiwayNetwork(
            (A): LayerNorm((1024,), eps=1e-05, elementwise_affine=True)
            (B): LayerNorm((1024,), eps=1e-05, elementwise_affine=True)
          )
          (dropout_module): Dropout(p=0.0, inplace=False)
          (drop_path): DropPath(p=0.15217391304347827)
          (ffn): MultiwayNetwork(
            (A): FeedForwardNetwork(
              (activation_dropout_module): Dropout(p=0.0, inplace=False)
              (dropout_module): Dropout(p=0.0, inplace=False)
              (fc1): Linear(in_features=1024, out_features=4096, bias=True)
              (fc2): Linear(in_features=4096, out_features=1024, bias=True)
              (ffn_layernorm): LayerNorm((4096,), eps=1e-05, elementwise_affine=True)
            )
            (B): FeedForwardNetwork(
              (activation_dropout_module): Dropout(p=0.0, inplace=False)
              (dropout_module): Dropout(p=0.0, inplace=False)
              (fc1): Linear(in_features=1024, out_features=4096, bias=True)
              (fc2): Linear(in_features=4096, out_features=1024, bias=True)
              (ffn_layernorm): LayerNorm((4096,), eps=1e-05, elementwise_affine=True)
            )
          )
          (final_layer_norm): MultiwayNetwork(
            (A): LayerNorm((1024,), eps=1e-05, elementwise_affine=True)
            (B): LayerNorm((1024,), eps=1e-05, elementwise_affine=True)
          )
        )
        (15): EncoderLayer(
          (self_attn): MultiheadAttention(
            (k_proj): MultiwayNetwork(
              (A): Linear(in_features=1024, out_features=1024, bias=True)
              (B): Linear(in_features=1024, out_features=1024, bias=True)
            )
            (v_proj): MultiwayNetwork(
              (A): Linear(in_features=1024, out_features=1024, bias=True)
              (B): Linear(in_features=1024, out_features=1024, bias=True)
            )
            (q_proj): MultiwayNetwork(
              (A): Linear(in_features=1024, out_features=1024, bias=True)
              (B): Linear(in_features=1024, out_features=1024, bias=True)
            )
            (out_proj): MultiwayNetwork(
              (A): Linear(in_features=1024, out_features=1024, bias=True)
              (B): Linear(in_features=1024, out_features=1024, bias=True)
            )
            (inner_attn_ln): MultiwayNetwork(
              (A): LayerNorm((1024,), eps=1e-05, elementwise_affine=True)
              (B): LayerNorm((1024,), eps=1e-05, elementwise_affine=True)
            )
            (dropout_module): Dropout(p=0.0, inplace=False)
          )
          (self_attn_layer_norm): MultiwayNetwork(
            (A): LayerNorm((1024,), eps=1e-05, elementwise_affine=True)
            (B): LayerNorm((1024,), eps=1e-05, elementwise_affine=True)
          )
          (dropout_module): Dropout(p=0.0, inplace=False)
          (drop_path): DropPath(p=0.16304347826086957)
          (ffn): MultiwayNetwork(
            (A): FeedForwardNetwork(
              (activation_dropout_module): Dropout(p=0.0, inplace=False)
              (dropout_module): Dropout(p=0.0, inplace=False)
              (fc1): Linear(in_features=1024, out_features=4096, bias=True)
              (fc2): Linear(in_features=4096, out_features=1024, bias=True)
              (ffn_layernorm): LayerNorm((4096,), eps=1e-05, elementwise_affine=True)
            )
            (B): FeedForwardNetwork(
              (activation_dropout_module): Dropout(p=0.0, inplace=False)
              (dropout_module): Dropout(p=0.0, inplace=False)
              (fc1): Linear(in_features=1024, out_features=4096, bias=True)
              (fc2): Linear(in_features=4096, out_features=1024, bias=True)
              (ffn_layernorm): LayerNorm((4096,), eps=1e-05, elementwise_affine=True)
            )
          )
          (final_layer_norm): MultiwayNetwork(
            (A): LayerNorm((1024,), eps=1e-05, elementwise_affine=True)
            (B): LayerNorm((1024,), eps=1e-05, elementwise_affine=True)
          )
        )
        (16): EncoderLayer(
          (self_attn): MultiheadAttention(
            (k_proj): MultiwayNetwork(
              (A): Linear(in_features=1024, out_features=1024, bias=True)
              (B): Linear(in_features=1024, out_features=1024, bias=True)
            )
            (v_proj): MultiwayNetwork(
              (A): Linear(in_features=1024, out_features=1024, bias=True)
              (B): Linear(in_features=1024, out_features=1024, bias=True)
            )
            (q_proj): MultiwayNetwork(
              (A): Linear(in_features=1024, out_features=1024, bias=True)
              (B): Linear(in_features=1024, out_features=1024, bias=True)
            )
            (out_proj): MultiwayNetwork(
              (A): Linear(in_features=1024, out_features=1024, bias=True)
              (B): Linear(in_features=1024, out_features=1024, bias=True)
            )
            (inner_attn_ln): MultiwayNetwork(
              (A): LayerNorm((1024,), eps=1e-05, elementwise_affine=True)
              (B): LayerNorm((1024,), eps=1e-05, elementwise_affine=True)
            )
            (dropout_module): Dropout(p=0.0, inplace=False)
          )
          (self_attn_layer_norm): MultiwayNetwork(
            (A): LayerNorm((1024,), eps=1e-05, elementwise_affine=True)
            (B): LayerNorm((1024,), eps=1e-05, elementwise_affine=True)
          )
          (dropout_module): Dropout(p=0.0, inplace=False)
          (drop_path): DropPath(p=0.17391304347826086)
          (ffn): MultiwayNetwork(
            (A): FeedForwardNetwork(
              (activation_dropout_module): Dropout(p=0.0, inplace=False)
              (dropout_module): Dropout(p=0.0, inplace=False)
              (fc1): Linear(in_features=1024, out_features=4096, bias=True)
              (fc2): Linear(in_features=4096, out_features=1024, bias=True)
              (ffn_layernorm): LayerNorm((4096,), eps=1e-05, elementwise_affine=True)
            )
            (B): FeedForwardNetwork(
              (activation_dropout_module): Dropout(p=0.0, inplace=False)
              (dropout_module): Dropout(p=0.0, inplace=False)
              (fc1): Linear(in_features=1024, out_features=4096, bias=True)
              (fc2): Linear(in_features=4096, out_features=1024, bias=True)
              (ffn_layernorm): LayerNorm((4096,), eps=1e-05, elementwise_affine=True)
            )
          )
          (final_layer_norm): MultiwayNetwork(
            (A): LayerNorm((1024,), eps=1e-05, elementwise_affine=True)
            (B): LayerNorm((1024,), eps=1e-05, elementwise_affine=True)
          )
        )
        (17): EncoderLayer(
          (self_attn): MultiheadAttention(
            (k_proj): MultiwayNetwork(
              (A): Linear(in_features=1024, out_features=1024, bias=True)
              (B): Linear(in_features=1024, out_features=1024, bias=True)
            )
            (v_proj): MultiwayNetwork(
              (A): Linear(in_features=1024, out_features=1024, bias=True)
              (B): Linear(in_features=1024, out_features=1024, bias=True)
            )
            (q_proj): MultiwayNetwork(
              (A): Linear(in_features=1024, out_features=1024, bias=True)
              (B): Linear(in_features=1024, out_features=1024, bias=True)
            )
            (out_proj): MultiwayNetwork(
              (A): Linear(in_features=1024, out_features=1024, bias=True)
              (B): Linear(in_features=1024, out_features=1024, bias=True)
            )
            (inner_attn_ln): MultiwayNetwork(
              (A): LayerNorm((1024,), eps=1e-05, elementwise_affine=True)
              (B): LayerNorm((1024,), eps=1e-05, elementwise_affine=True)
            )
            (dropout_module): Dropout(p=0.0, inplace=False)
          )
          (self_attn_layer_norm): MultiwayNetwork(
            (A): LayerNorm((1024,), eps=1e-05, elementwise_affine=True)
            (B): LayerNorm((1024,), eps=1e-05, elementwise_affine=True)
          )
          (dropout_module): Dropout(p=0.0, inplace=False)
          (drop_path): DropPath(p=0.18478260869565216)
          (ffn): MultiwayNetwork(
            (A): FeedForwardNetwork(
              (activation_dropout_module): Dropout(p=0.0, inplace=False)
              (dropout_module): Dropout(p=0.0, inplace=False)
              (fc1): Linear(in_features=1024, out_features=4096, bias=True)
              (fc2): Linear(in_features=4096, out_features=1024, bias=True)
              (ffn_layernorm): LayerNorm((4096,), eps=1e-05, elementwise_affine=True)
            )
            (B): FeedForwardNetwork(
              (activation_dropout_module): Dropout(p=0.0, inplace=False)
              (dropout_module): Dropout(p=0.0, inplace=False)
              (fc1): Linear(in_features=1024, out_features=4096, bias=True)
              (fc2): Linear(in_features=4096, out_features=1024, bias=True)
              (ffn_layernorm): LayerNorm((4096,), eps=1e-05, elementwise_affine=True)
            )
          )
          (final_layer_norm): MultiwayNetwork(
            (A): LayerNorm((1024,), eps=1e-05, elementwise_affine=True)
            (B): LayerNorm((1024,), eps=1e-05, elementwise_affine=True)
          )
        )
        (18): EncoderLayer(
          (self_attn): MultiheadAttention(
            (k_proj): MultiwayNetwork(
              (A): Linear(in_features=1024, out_features=1024, bias=True)
              (B): Linear(in_features=1024, out_features=1024, bias=True)
            )
            (v_proj): MultiwayNetwork(
              (A): Linear(in_features=1024, out_features=1024, bias=True)
              (B): Linear(in_features=1024, out_features=1024, bias=True)
            )
            (q_proj): MultiwayNetwork(
              (A): Linear(in_features=1024, out_features=1024, bias=True)
              (B): Linear(in_features=1024, out_features=1024, bias=True)
            )
            (out_proj): MultiwayNetwork(
              (A): Linear(in_features=1024, out_features=1024, bias=True)
              (B): Linear(in_features=1024, out_features=1024, bias=True)
            )
            (inner_attn_ln): MultiwayNetwork(
              (A): LayerNorm((1024,), eps=1e-05, elementwise_affine=True)
              (B): LayerNorm((1024,), eps=1e-05, elementwise_affine=True)
            )
            (dropout_module): Dropout(p=0.0, inplace=False)
          )
          (self_attn_layer_norm): MultiwayNetwork(
            (A): LayerNorm((1024,), eps=1e-05, elementwise_affine=True)
            (B): LayerNorm((1024,), eps=1e-05, elementwise_affine=True)
          )
          (dropout_module): Dropout(p=0.0, inplace=False)
          (drop_path): DropPath(p=0.19565217391304346)
          (ffn): MultiwayNetwork(
            (A): FeedForwardNetwork(
              (activation_dropout_module): Dropout(p=0.0, inplace=False)
              (dropout_module): Dropout(p=0.0, inplace=False)
              (fc1): Linear(in_features=1024, out_features=4096, bias=True)
              (fc2): Linear(in_features=4096, out_features=1024, bias=True)
              (ffn_layernorm): LayerNorm((4096,), eps=1e-05, elementwise_affine=True)
            )
            (B): FeedForwardNetwork(
              (activation_dropout_module): Dropout(p=0.0, inplace=False)
              (dropout_module): Dropout(p=0.0, inplace=False)
              (fc1): Linear(in_features=1024, out_features=4096, bias=True)
              (fc2): Linear(in_features=4096, out_features=1024, bias=True)
              (ffn_layernorm): LayerNorm((4096,), eps=1e-05, elementwise_affine=True)
            )
          )
          (final_layer_norm): MultiwayNetwork(
            (A): LayerNorm((1024,), eps=1e-05, elementwise_affine=True)
            (B): LayerNorm((1024,), eps=1e-05, elementwise_affine=True)
          )
        )
        (19): EncoderLayer(
          (self_attn): MultiheadAttention(
            (k_proj): MultiwayNetwork(
              (A): Linear(in_features=1024, out_features=1024, bias=True)
              (B): Linear(in_features=1024, out_features=1024, bias=True)
            )
            (v_proj): MultiwayNetwork(
              (A): Linear(in_features=1024, out_features=1024, bias=True)
              (B): Linear(in_features=1024, out_features=1024, bias=True)
            )
            (q_proj): MultiwayNetwork(
              (A): Linear(in_features=1024, out_features=1024, bias=True)
              (B): Linear(in_features=1024, out_features=1024, bias=True)
            )
            (out_proj): MultiwayNetwork(
              (A): Linear(in_features=1024, out_features=1024, bias=True)
              (B): Linear(in_features=1024, out_features=1024, bias=True)
            )
            (inner_attn_ln): MultiwayNetwork(
              (A): LayerNorm((1024,), eps=1e-05, elementwise_affine=True)
              (B): LayerNorm((1024,), eps=1e-05, elementwise_affine=True)
            )
            (dropout_module): Dropout(p=0.0, inplace=False)
          )
          (self_attn_layer_norm): MultiwayNetwork(
            (A): LayerNorm((1024,), eps=1e-05, elementwise_affine=True)
            (B): LayerNorm((1024,), eps=1e-05, elementwise_affine=True)
          )
          (dropout_module): Dropout(p=0.0, inplace=False)
          (drop_path): DropPath(p=0.20652173913043478)
          (ffn): MultiwayNetwork(
            (A): FeedForwardNetwork(
              (activation_dropout_module): Dropout(p=0.0, inplace=False)
              (dropout_module): Dropout(p=0.0, inplace=False)
              (fc1): Linear(in_features=1024, out_features=4096, bias=True)
              (fc2): Linear(in_features=4096, out_features=1024, bias=True)
              (ffn_layernorm): LayerNorm((4096,), eps=1e-05, elementwise_affine=True)
            )
            (B): FeedForwardNetwork(
              (activation_dropout_module): Dropout(p=0.0, inplace=False)
              (dropout_module): Dropout(p=0.0, inplace=False)
              (fc1): Linear(in_features=1024, out_features=4096, bias=True)
              (fc2): Linear(in_features=4096, out_features=1024, bias=True)
              (ffn_layernorm): LayerNorm((4096,), eps=1e-05, elementwise_affine=True)
            )
          )
          (final_layer_norm): MultiwayNetwork(
            (A): LayerNorm((1024,), eps=1e-05, elementwise_affine=True)
            (B): LayerNorm((1024,), eps=1e-05, elementwise_affine=True)
          )
        )
        (20): EncoderLayer(
          (self_attn): MultiheadAttention(
            (k_proj): MultiwayNetwork(
              (A): Linear(in_features=1024, out_features=1024, bias=True)
              (B): Linear(in_features=1024, out_features=1024, bias=True)
            )
            (v_proj): MultiwayNetwork(
              (A): Linear(in_features=1024, out_features=1024, bias=True)
              (B): Linear(in_features=1024, out_features=1024, bias=True)
            )
            (q_proj): MultiwayNetwork(
              (A): Linear(in_features=1024, out_features=1024, bias=True)
              (B): Linear(in_features=1024, out_features=1024, bias=True)
            )
            (out_proj): MultiwayNetwork(
              (A): Linear(in_features=1024, out_features=1024, bias=True)
              (B): Linear(in_features=1024, out_features=1024, bias=True)
            )
            (inner_attn_ln): MultiwayNetwork(
              (A): LayerNorm((1024,), eps=1e-05, elementwise_affine=True)
              (B): LayerNorm((1024,), eps=1e-05, elementwise_affine=True)
            )
            (dropout_module): Dropout(p=0.0, inplace=False)
          )
          (self_attn_layer_norm): MultiwayNetwork(
            (A): LayerNorm((1024,), eps=1e-05, elementwise_affine=True)
            (B): LayerNorm((1024,), eps=1e-05, elementwise_affine=True)
          )
          (dropout_module): Dropout(p=0.0, inplace=False)
          (drop_path): DropPath(p=0.21739130434782608)
          (ffn): MultiwayNetwork(
            (A): FeedForwardNetwork(
              (activation_dropout_module): Dropout(p=0.0, inplace=False)
              (dropout_module): Dropout(p=0.0, inplace=False)
              (fc1): Linear(in_features=1024, out_features=4096, bias=True)
              (fc2): Linear(in_features=4096, out_features=1024, bias=True)
              (ffn_layernorm): LayerNorm((4096,), eps=1e-05, elementwise_affine=True)
            )
            (B): FeedForwardNetwork(
              (activation_dropout_module): Dropout(p=0.0, inplace=False)
              (dropout_module): Dropout(p=0.0, inplace=False)
              (fc1): Linear(in_features=1024, out_features=4096, bias=True)
              (fc2): Linear(in_features=4096, out_features=1024, bias=True)
              (ffn_layernorm): LayerNorm((4096,), eps=1e-05, elementwise_affine=True)
            )
          )
          (final_layer_norm): MultiwayNetwork(
            (A): LayerNorm((1024,), eps=1e-05, elementwise_affine=True)
            (B): LayerNorm((1024,), eps=1e-05, elementwise_affine=True)
          )
        )
        (21): EncoderLayer(
          (self_attn): MultiheadAttention(
            (k_proj): MultiwayNetwork(
              (A): Linear(in_features=1024, out_features=1024, bias=True)
              (B): Linear(in_features=1024, out_features=1024, bias=True)
            )
            (v_proj): MultiwayNetwork(
              (A): Linear(in_features=1024, out_features=1024, bias=True)
              (B): Linear(in_features=1024, out_features=1024, bias=True)
            )
            (q_proj): MultiwayNetwork(
              (A): Linear(in_features=1024, out_features=1024, bias=True)
              (B): Linear(in_features=1024, out_features=1024, bias=True)
            )
            (out_proj): MultiwayNetwork(
              (A): Linear(in_features=1024, out_features=1024, bias=True)
              (B): Linear(in_features=1024, out_features=1024, bias=True)
            )
            (inner_attn_ln): MultiwayNetwork(
              (A): LayerNorm((1024,), eps=1e-05, elementwise_affine=True)
              (B): LayerNorm((1024,), eps=1e-05, elementwise_affine=True)
            )
            (dropout_module): Dropout(p=0.0, inplace=False)
          )
          (self_attn_layer_norm): MultiwayNetwork(
            (A): LayerNorm((1024,), eps=1e-05, elementwise_affine=True)
            (B): LayerNorm((1024,), eps=1e-05, elementwise_affine=True)
          )
          (dropout_module): Dropout(p=0.0, inplace=False)
          (drop_path): DropPath(p=0.22826086956521738)
          (ffn): MultiwayNetwork(
            (A): FeedForwardNetwork(
              (activation_dropout_module): Dropout(p=0.0, inplace=False)
              (dropout_module): Dropout(p=0.0, inplace=False)
              (fc1): Linear(in_features=1024, out_features=4096, bias=True)
              (fc2): Linear(in_features=4096, out_features=1024, bias=True)
              (ffn_layernorm): LayerNorm((4096,), eps=1e-05, elementwise_affine=True)
            )
            (B): FeedForwardNetwork(
              (activation_dropout_module): Dropout(p=0.0, inplace=False)
              (dropout_module): Dropout(p=0.0, inplace=False)
              (fc1): Linear(in_features=1024, out_features=4096, bias=True)
              (fc2): Linear(in_features=4096, out_features=1024, bias=True)
              (ffn_layernorm): LayerNorm((4096,), eps=1e-05, elementwise_affine=True)
            )
          )
          (final_layer_norm): MultiwayNetwork(
            (A): LayerNorm((1024,), eps=1e-05, elementwise_affine=True)
            (B): LayerNorm((1024,), eps=1e-05, elementwise_affine=True)
          )
        )
        (22): EncoderLayer(
          (self_attn): MultiheadAttention(
            (k_proj): MultiwayNetwork(
              (A): Linear(in_features=1024, out_features=1024, bias=True)
              (B): Linear(in_features=1024, out_features=1024, bias=True)
            )
            (v_proj): MultiwayNetwork(
              (A): Linear(in_features=1024, out_features=1024, bias=True)
              (B): Linear(in_features=1024, out_features=1024, bias=True)
            )
            (q_proj): MultiwayNetwork(
              (A): Linear(in_features=1024, out_features=1024, bias=True)
              (B): Linear(in_features=1024, out_features=1024, bias=True)
            )
            (out_proj): MultiwayNetwork(
              (A): Linear(in_features=1024, out_features=1024, bias=True)
              (B): Linear(in_features=1024, out_features=1024, bias=True)
            )
            (inner_attn_ln): MultiwayNetwork(
              (A): LayerNorm((1024,), eps=1e-05, elementwise_affine=True)
              (B): LayerNorm((1024,), eps=1e-05, elementwise_affine=True)
            )
            (dropout_module): Dropout(p=0.0, inplace=False)
          )
          (self_attn_layer_norm): MultiwayNetwork(
            (A): LayerNorm((1024,), eps=1e-05, elementwise_affine=True)
            (B): LayerNorm((1024,), eps=1e-05, elementwise_affine=True)
          )
          (dropout_module): Dropout(p=0.0, inplace=False)
          (drop_path): DropPath(p=0.2391304347826087)
          (ffn): MultiwayNetwork(
            (A): FeedForwardNetwork(
              (activation_dropout_module): Dropout(p=0.0, inplace=False)
              (dropout_module): Dropout(p=0.0, inplace=False)
              (fc1): Linear(in_features=1024, out_features=4096, bias=True)
              (fc2): Linear(in_features=4096, out_features=1024, bias=True)
              (ffn_layernorm): LayerNorm((4096,), eps=1e-05, elementwise_affine=True)
            )
            (B): FeedForwardNetwork(
              (activation_dropout_module): Dropout(p=0.0, inplace=False)
              (dropout_module): Dropout(p=0.0, inplace=False)
              (fc1): Linear(in_features=1024, out_features=4096, bias=True)
              (fc2): Linear(in_features=4096, out_features=1024, bias=True)
              (ffn_layernorm): LayerNorm((4096,), eps=1e-05, elementwise_affine=True)
            )
          )
          (final_layer_norm): MultiwayNetwork(
            (A): LayerNorm((1024,), eps=1e-05, elementwise_affine=True)
            (B): LayerNorm((1024,), eps=1e-05, elementwise_affine=True)
          )
        )
        (23): EncoderLayer(
          (self_attn): MultiheadAttention(
            (k_proj): MultiwayNetwork(
              (A): Linear(in_features=1024, out_features=1024, bias=True)
              (B): Linear(in_features=1024, out_features=1024, bias=True)
            )
            (v_proj): MultiwayNetwork(
              (A): Linear(in_features=1024, out_features=1024, bias=True)
              (B): Linear(in_features=1024, out_features=1024, bias=True)
            )
            (q_proj): MultiwayNetwork(
              (A): Linear(in_features=1024, out_features=1024, bias=True)
              (B): Linear(in_features=1024, out_features=1024, bias=True)
            )
            (out_proj): MultiwayNetwork(
              (A): Linear(in_features=1024, out_features=1024, bias=True)
              (B): Linear(in_features=1024, out_features=1024, bias=True)
            )
            (inner_attn_ln): MultiwayNetwork(
              (A): LayerNorm((1024,), eps=1e-05, elementwise_affine=True)
              (B): LayerNorm((1024,), eps=1e-05, elementwise_affine=True)
            )
            (dropout_module): Dropout(p=0.0, inplace=False)
          )
          (self_attn_layer_norm): MultiwayNetwork(
            (A): LayerNorm((1024,), eps=1e-05, elementwise_affine=True)
            (B): LayerNorm((1024,), eps=1e-05, elementwise_affine=True)
          )
          (dropout_module): Dropout(p=0.0, inplace=False)
          (drop_path): DropPath(p=0.25)
          (ffn): MultiwayNetwork(
            (A): FeedForwardNetwork(
              (activation_dropout_module): Dropout(p=0.0, inplace=False)
              (dropout_module): Dropout(p=0.0, inplace=False)
              (fc1): Linear(in_features=1024, out_features=4096, bias=True)
              (fc2): Linear(in_features=4096, out_features=1024, bias=True)
              (ffn_layernorm): LayerNorm((4096,), eps=1e-05, elementwise_affine=True)
            )
            (B): FeedForwardNetwork(
              (activation_dropout_module): Dropout(p=0.0, inplace=False)
              (dropout_module): Dropout(p=0.0, inplace=False)
              (fc1): Linear(in_features=1024, out_features=4096, bias=True)
              (fc2): Linear(in_features=4096, out_features=1024, bias=True)
              (ffn_layernorm): LayerNorm((4096,), eps=1e-05, elementwise_affine=True)
            )
          )
          (final_layer_norm): MultiwayNetwork(
            (A): LayerNorm((1024,), eps=1e-05, elementwise_affine=True)
            (B): LayerNorm((1024,), eps=1e-05, elementwise_affine=True)
          )
        )
      )
    )
  )
  (fc_norm): LayerNorm((1024,), eps=1e-05, elementwise_affine=True)
  (head): Linear(in_features=1024, out_features=1000, bias=True)
)
number of params: 673725416
LR = 0.00020000
Batch size = 128
Update frequent = 1
Number of training examples = 8077
Number of training training per epoch = 63
Assigned values = [… Param groups = {
  "layer_0_decay": {
    "weight_decay": 0.05,
    "params": [
      "beit3.text_embed.weight",
      "beit3.vision_embed.mask_token",
      "beit3.vision_embed.proj.weight",
…
